…

0.5  

  لامتحا

اب رگید یفداصت فذح

کی سپس

: 

میزاس

  یم

softmax

  زاس

لاعف و نورون

    اب10  

لماک لصتم

یک  لایه  

  ام ،رخآ رد و

model.add(Dense(10, activation='softmax')) 

 ریز  

 دک ،لماک

 ی  

رامعم زا

ای  

هصلاخ هدهاشم

اربی  

  ،لاح

  سرید.  

 ینا

اپ هب

نونکا

  ام

ی  

رامعم

تخاس

ی نکیم: 

م ارجا ار

model.summary() 

Model: "sequential" 
_________________________________________________________________ 
Layer (type)                Output Shape              Param # 
================================================================= 
conv2d (Conv2D)             (None, 32, 32, 32)        896 

conv2d_1 (Conv2D)           (None, 32, 32, 32)        9248 

max_pooling2d (MaxPooling2D)  (None, 16, 16, 32)       0 

max_pooling2d_1 (MaxPooling2D)   (None, 8, 8, 32)         0 

dropout (Dropout)           (None, 8, 8, 32)          0 

flatten (Flatten)           (None, 2048)              0 

dense (Dense)               (None, 512)               1049088 

dropout_1 (Dropout)         (None, 512)               0 

dense_1 (Dense)             (None, 10)                5130 

================================================================= 
Total params: 1,064,362 
Trainable params: 1,064,362 
Non-trainable params: 0 
_________________________________________________________________ 

یل  م ی نکیم: 

اپماک دوخ

model.compile(loss='categorical_crossentropy', 
              optimizer='adam', 
              metrics=['accuracy']) 

یتام

ظنت اب ار لدم

  ،سپس

اجن

ی

ا رد ام زاس
…
