…
Scale  Unique Scan #  Training/Validation Image #  Testing Image # 

1 
1 
1 
1 
1 
0.5 
0.85 
0.5 
0.85 

1 
2 
3 
4 
5 
1 
1 
1 
1 

5 
10 
15 
20 
25 
7 
7 
11 
11 

5 
5 
5 
5 
5 
7 
7 
5 
5 

 
  
  
  
  
  
  
 
 
 
SI Table 2: Tabular representation of a Pytorch implementation of a Fully Convolutional 
Network with a Res-net 101 backbone with an input image size of 1000x500 pixels with 6 
material classes. 

===================================================================== 

Layer (type:depth-idx)                        Output Shape              Param # 

===================================================================== 

FCN 

[1, 6, 1000, 500]         -- 

├─IntermediateLayerGetter:  

[1, 2048, 125, 63]       -- 

│    └─Conv2d:  

[1, 64, 500, 250]         9,408 

│    └─BatchNorm2d:  

[1, 64, 500, 250]         128 

│    └─ReLU:  

[1, 64, 500, 250]         -- 

│    └─MaxPool2d:  

[1, 64, 250, 125]         -- 

│    └─Sequential: 1 

[1, 256, 250, 125]        -- 

│    │    └─Bottleneck: 0 

[1, 256, 250, 125]       75,008 

│    │    └─Bottleneck: 1 

[1, 256, 250, 125]       70,400 

│    │    └─Bottleneck: 2 

[1, 256, 250, 125]       70,400 

│    └─Sequential: 2 

[1, 512, 125, 63]         -- 

│    │    └─Bottleneck: 0 

[1, 512, 125, 63]         379,392 

│    │    └─Bottleneck: 1 

[1, 512, 125, 63]         280,064 

│    │    └─Bottleneck: 2 

[1, 512, 125, 63]         280,064 

│    │    └─Bottleneck: 3 

[1, 512, 125, 63]         280,064 

│    └─Sequential: 3 

[1, 1024, 125, 63]        -- 

│    │    └─Bottleneck: 0 

[1, 1024, 125, 63]       1,512,448 

│    │    └─Bottleneck: 1 

[1, 1024, 125, 63]       1,117,184 

│    │    └─Bottleneck: 2 

[1, 1024, 125, 63]       1,117,184 

│    │    └─Bottleneck: 3 

[1, 1024, 125, 63]       1,117,184 

│    │    └─Bottleneck: 4  

[1, 1024, 125, 63]       1,117,184 

│    │    └─Bottleneck: 5 

[1, 1024, 125, 63]       1,117,184 

│    │    └─Bottleneck: 6 

[1, 1024, 125, 63]       1,117,184 

│    │    └─Bottleneck: 7 

[1, 1024, 125, 63]       1,117,184 

│    │    └─Bottleneck: 8               

[1, 1024, 125, 63]       1,117,184 

│    │    └─Bottleneck: 9 

[1, 1024, 125, 63]       1,117,184 

│    │    └─Bottleneck: 10 

[1, 1024, 125, 63]       1,117,184 

│    │    └─Bottleneck: 11              

[1, 1024, 125, 63]       1,117,184 

│    │    └─Bottleneck: 12 

[1, 1024, 125, 63]       1,117,184 

│    │    └─Bottleneck: 13 

[1, 1024, 125, 63]       1,117,184 

│    │    └─Bottleneck: 14 

[1, 1024, 125, 63]       1,117,184 

│    │    └─Bottleneck: 15 

[1, 1024, 125, 63]       1,117,184 

│    │    └─Bottleneck: 16 

[1, 1024, 125, 63]       1,117,184 

│    │    └─Bottleneck: 17 

[1, 1024, 125, 63]       1,117,184 

│    │    └─Bottleneck: 18 

[1, 1024, 125, 63]       1,117,184 

│    │    └─Bottleneck: 19 

[1, 1024, 125, 63]       1,117,184 

│    │    └─Bottleneck: 20 

[1, 1024, 125, 63]       1,117,184 

│    │    └─Bottleneck: 21 

[1, 1024, 125, 63]       1,117,184 

│    │    └─Bottleneck: 22 

[1, 1024, 125, 63]       1,117,184 

│    └─Sequential: 4 

[1, 2048, 125, 63]        -- 

│    │    └─Bottleneck: 0 

[1, 2048, 125, 63]       6,039,552 

│    │    └─Bottleneck: 1 

[1, 2048, 125, 63]       4,462,592 

│    │    └─Bottleneck: 2 

[1, 2048, 125, 63]       4,462,592 

├─FCNHead: 

[1, 6, 125, 63]              -- 

│    └─Conv2d: 0 

  [1, 512, 125, 63]         9,437,184 

│    └─BatchNorm2d: 1 

[1, 512, 125, 63]         1,024 

│    └─ReLU: 2 

│    └─Dropout: 3 

│    └─Conv2d: 4 

[1, 512, 125, 63]         -- 

[1, 512, 125, 63]          -- 

[1, 6, 125, 63]             3,078 

=====================================================================
========================== 

Total params: 51,941,446 

Trainable params: 51,941,446 

Non-trainable params: 0 

Total mult-adds (G): 415.05 

=====================================================================
========================== 

Input size (MB): 6.00 

Forward/backward pass size (MB): 7395.96 

Params size (MB): 207.77 
…
